…
;: conv_final_image_width * conv_final_image_height * 512, \u0026#34;out_features\u0026#34;: 4096, \u0026#34;dropout_p\u0026#34;: 0.5 }, { \u0026#34;nof_layers\u0026#34;: 1, \u0026#34;out_features\u0026#34;: 1000, \u0026#34;activation\u0026#34;: None } ] model = VGG.VGG( stacked_conv_descriptors = model_stacked_conv_list, stacked_linear_descriptor = model_stacked_linear, enable_debug = False, ) print(model) Here\u0026rsquo;s what the printout of the VGG16 model looks like:\nclick to expand 16-layer VGG model printout\rVGG( (network): Sequential( (0): VGGStacked2DConv( (network): Sequential( (0): Conv2d(3, 64, kernel_size=(3, 3), stride=(1, 1), padding=(1, 1)) (1): ReLU() (2): Conv2d(64, 64, kernel_size=(3, 3), stride=(1, 1), padding=(1, 1)) (3): ReLU() ) ) (1): MaxPool2d(kernel_size=2, stride=2, padding=0, dilation=1, ceil_mode=False) (2): VGGStacked2DConv( (network): Sequential( (0): Conv2d(1, 128, kernel_size=(3, 3), stride=(1, 1), padding=(1, 1)) (1): ReLU() (2): Conv2d(128, 128, kernel_size=(3, 3), stride=(1, 1), padding=(1, 1)) (3): ReLU() ) ) (3): MaxPool2d(kernel_size=2, stride=2, padding=0, dilation=1, ceil_mode=False) (4): VGGStacked2DConv( (network): Sequential( (0): Conv2d(128, 256, kernel_size=(3, 3), stride=(1, 1), padding=(1, 1)) (1): ReLU() (2): Conv2d(256, 256, kernel_size=(3, 3), stride=(1, 1), padding=(1, 1)) (3): ReLU() (4): Conv2d(256, 256, kernel_size=(1, 1), stride=(1, 1)) (5): ReLU() ) ) (5): MaxPool2d(kernel_size=2, stride=2, padding=0, dilation=1, ceil_mode=False) (6): VGGStacked2DConv( (network): Sequential( (0): Conv2d(1, 512, kernel_size=(3, 3), stride=(1, 1), padding=(1, 1)) (1): ReLU() (2): Conv2d(512, 512, kernel_size=(3, 3), stride=(1, 1), padding=(1, 1)) (3): ReLU() (4): Conv2d(512, 512, kernel_size=(1, 1), stride=(1, 1)) (5): ReLU() ) ) (7): MaxPool2d(kernel_size=2, stride=2, padding=0, dilation=1, ceil_mode=False) (8): VGGStacked2DConv( (network): Sequential( (0): Conv2d(1, 512, kernel_size=(3, 3), stride=(1, 1), padding=(1, 1)) (1): ReLU() (2): Conv2d(512, 512, kernel_size=(3, 3), stride=(1, 1), padding=(1, 1)) (3): ReLU() (4): Conv2d(512, 512, kernel_size=(1, 1), stride=(1, 1)) (5): ReLU() ) ) (9): MaxPool2d(kernel_size=2, stride=2, padding=0, dilation=1, ceil_mode=False) (10): Flatten(start_dim=1, end_dim=-1) (11): VGGStackedLinear( (network): Sequential( (0): Linear(in_features=25088, out_features=4096, bias=True) (1): ReLU() (2): Dropout(p=0.5, inplace=False) (3): Linear(in_features=4096, out_features=4096, bias=True) (4): ReLU() (5): Dropout(p=0.5, inplace=False) (6): Linear(in_features=4096, out_features=1000, bias=True) ) ) (12): Softmax(dim=-1) ) ) Data Processing In the VGG paper, the only data processing done on the input data is subtracting the RGB value calculated from the training set. To apply this processing, we start by going through the entire training dataset and computing the mean value for each color channel.\n1 2 3 4 5 6 7 8 9 10 11 12 13 14 15 16 17 1
…
